src/model.pt (torch, 204287 bytes, 13 tensors)

conv1.weight f4 [100, 54, 3]
00000000: 380e 25be 38d1 bc3d a43a 11be 74f2 d33d
00000010: 24e8 423e 14a2 3bbe 628d aebc 101c 4e3d
00000020: 9291 31bd d65c 60ba a9f5 14be 8a42 623d
00000030: 55f9 26be 2773 7a3d 808c e0bd da1e 40be
00000040: 0a25 ef3d 0a42 f5bd 9cbc 8c3d 592f fb3d
00000050: c0a4 433e 15df 76bc 7ed2 d1bd f5a0 cfbd
00000060: 8de1 013e 96bb cb3d ee73 a2bd 3840 20be
00000070: bab6 0b3e 5b23 883d a9fd e33d bc16 1a3d
00000080: dedd 143d e6f6 f0bd 5e22 a03d 7747 cebd
00000090: fb82 843d 3671 be3d 03de 62bd e4c3 5abd
000000a0: db6c a63d 88ff 1cbd 8fba a73d 1abe 383e
000000b0: 520e 05be 2e33 b43d 20d8 d3bc 3597 1d3e
000000c0: 2e0c 35bc 19ed 5dbd 1251 07be 2a4c 9c3d
000000d0: 833d 04be 5b6c b43d c03c 053d 9a32 0f3e
000000e0: 6067 413e 78a1 1d3e 659c 783d 614a 67bd
000000f0: 8b11 163e ef94 333e e3f2 cabb 8c14 ad3d
00000100: 856d 38be 2051 043e 0d71 1bbe 6cb4 3abe
00000110: 97a9 40bd 3e9e cf3c 26c7 3dbe 6308 9c3d
00000120: dfab 193c 66c0 ff3d 79c9 e3bd 3730 a9bd
00000130: 5dbc ddbd f91c 3e3e 9063 1cbe 7b50 c83d
00000140: 1a6a 953d 7c45 483b 4f31 01be d95f 9dbd
00000150: bebe 2e3e 1398 9fbd 7b07 4f3d 5912 1c3e
00000160: 82df d6bd d74e 35be fe51 39be 8176 413e
00000170: 8b31 433e bbd8 15be 82c6 413c d705 dbbd
00000180: bee0 f03d a02f 073e 1215 b9bd bf10 2abd
00000190: 7da3 6e3d f027 87bd f405 2c3d eb65 ad3d
000001a0: 98b8 9e3d fc27 ed3d 459a 203d 8365 c03d
000001b0: 6ec9 1b3e 0a9f dc3c 4c93 13be 928f 5b3b
000001c0: 4ed9 143e f091 a0bd 1487 c53d 7768 9f3b
000001d0: 0eba dd3d 015b 15be f4f6 213e 7c34 1a3e
000001e0: 26d0 d5bc 75fa 02bd d10d 363e f46f 38be
000001f0: 9f0c 053e 4975 7eba b448 10be fdf1 16be
00000200: 58f4 5bbd 7d0c 1fbe 8e99 de3c 6d4f 86bc
00000210: 2e9f 133e 72ad 363d f10d b6bd 4b51 dbbd
00000220: c3d1 0d3e 87d8 e4bd e9b9 f2bd 2fe7 b63d
00000230: 2a35 3cbe 4af3 6a3c 5e34 1cbd 097d 97bd
00000240: bec9 d03c 6237 bfbd d03c 3a3e 0dfd 33bd
00000250: cb4f e9bd 5465 283e 6091 c93c 11ce 563b
00000260: ccf6 dbba e3ce 683d 9bdf 65bd 6b84 39be
00000270: 3b5c 9dbd 4fdb 173e 2a5b 8d3c a897 3d3e
00000280: bd9d 3abe 38d9 863b b90e c1bc 1d4c 9d3d
00000290: 6fbf 0f3e 9bb7 1b3e 1ed8 9bbd 0cd3 da3d
000002a0: 2add 3b3e fb6a a8ba df77 1fbe 0da8 423e
000002b0: f641 9fbd 5b40 c7bd cb79 bdbd 817f 10be
000002c0: cad6 cebd 19df 0ebe dd91 eabc 9747 153e
000002d0: 59f5 0a3e e6a5 993d 8c72 11bd 9d52 5e3c
000002e0: d7a7 dabc f23f 263e b622 343e c54f 283e
000002f0: 29ba babd 13b9 293e 3d6c 113e 618a 50bd
00000300: f56c a9bc 122e 213d 9c32 b23d 5bda a03d
00000310: d4a2 1a3e 93f9 21be ed43 e33d 2b12 c9bd
00000320: 72e3 2e3d f73c c23c d113 163e 10ee 06be
00000330: 74f0 cd3d 00fc 303e 77dd d53d 7823 2fbe
00000340: b1fc a3bd 9f1e 15be 1cab 1b3e e833 1c3e
00000350: ab18 23be 0397 2b3e bfb2 97bc 104c 87bc
00000360: 7e1b 44be ac1f 7c3d 9fe5 c0bd 5a98 e73d
00000370: 1e8e a33c 7c39 383d ae35 043e f58e 91ba
00000380: 429b 943d d320 40be ac5d ddbd 6c86 d43d
00000390: f9ee 983d 480a f1bc eb54 96bd cd12 b83d
000003a0: adeb 1a3e 5e18 44bd 8bdd f1bd 932d 423e
000003b0: d879 6f3d 046d 293e 7151 943b 4e42 0c3d
000003c0: 77ba 243e c3e7 f73d 1273 1bbe 741d 3a3d
000003d0: f23f 013d 3588 f3bd 7a0e cbbd 2db9 a53d
000003e0: 5043 653c d61d 8c3c f251 ed3d 3028 fc3d
000003f0: 6c6d 41be 476a 0bbe 9c29 d53a dbac cabd
-0.16118705 0.09219593 -0.14182526 0.10348979 0.19033867 -0.18323547 -0.021307651 0.05031973
-0.043351717 -0.00085587555 -0.14546837 0.055239238 -0.1630605 0.061144974 -0.10964298 -0.18761769
0.116769865 -0.119754866 0.06871912 0.1226489 0.19105816 -0.015067835 -0.10245226 -0.10138122
0.12683697 0.099478886 -0.07932268 -0.15649498 0.13643923 0.066473685 0.11132366 0.037619337
0.0363444 -0.11765842 0.07819055 -0.100722246 0.06470295 0.09298937 -0.055387508 -0.053409472
0.08126231 -0.03832963 0.0818988 0.18041268 -0.12993744 0.08798824 -0.025859892 0.15389712
-0.011050267 -0.054181192 -0.1321452 0.07631715 -0.1291409 0.0880973 0.03252864 0.13984147
0.1888709 0.15393627 0.060696024 -0.056467418 0.1465513 0.17537282 -0.006193505 0.08451185
-0.18010528 0.12921572 -0.15179844 -0.18232888 -0.047036733 0.02534401 -0.18533 0.07618787
0.009379356 0.12487869 -0.11122412 -0.082611494 -0.10826943 0.1856574 -0.15272355 0.097809754
0.07295628 0.0030558994 -0.12616466 -0.07684297 0.1706495 -0.07792678 0.050544243 0.15241374
-0.104918495 -0.17705856 -0.18097684 0.18892862 0.19061868 -0.14633457 0.011827113 -0.10694473
0.11761616 0.13201761 -0.09037222 -0.041519877 0.058261383 -0.06599414 0.041997865 0.08466705
0.07750052 0.11579892 0.039209623 0.09394362 0.15213558 0.026931304 -0.14411658 0.0033502323
0.1453602 -0.07840335 0.09644905 0.004864748 0.10826503 -0.14585496 0.15816861 0.15059084
-0.02610023 -0.031977136 0.17778708 -0.18011457 0.12993096 -0.0009706808 -0.14090234 -0.14740749
-0.05369982 -0.15532108 0.02717283 -0.016395295 0.14416191 0.044599004 -0.08889378 -0.10708865
0.13849549 -0.11174112 -0.11851866 0.089308135 -0.18379655 0.014340231 -0.03813588 -0.073968954
0.025486823 -0.09336735 0.1818726 -0.0439425 -0.113921724 0.16444904 0.024605453 0.0032776634
-0.0016781925 0.056837928 -0.05612145 -0.1811692 -0.07683607 0.14829753 0.017255384 0.18514884
-0.18224235 0.00411525 -0.02356659 0.07680533 0.1403787 0.15206759 -0.076095805 0.10684785
0.18346086 -0.0012849265 -0.15573071 0.19009419 -0.07776253 -0.09729072 -0.09251746 -0.14111139
-0.100995615 -0.13952293 -0.028634006 0.1457809 0.13570155 0.07502346 -0.03550963 0.013569501
-0.02669136 0.1623533 0.17591366 0.1643668 -0.091175385 0.16574506 0.14201446 -0.05091322
-0.020681838 0.039350577 0.08701059 0.07854148 0.15101177 -0.15817861 0.1109694 -0.098179184
0.042697378 0.02371071 0.14655997 -0.13176751 0.100556284 0.1728363 0.10442632 -0.17103374
-0.080071814 -0.14562462 0.15201992 0.15254176 -0.15927379 0.16756825 -0.01851785 -0.016515762
-0.19151112 0.061553642 -0.09418797 0.11308356 0.019965228 0.044976696 0.12911102 -0.0011105227
0.072561756 -0.18762521 -0.10808882 0.103772014 0.074674554 -0.029423848 -0.073404156 0.08987961
0.15128966 -0.0478748 -0.11809834 0.18962698 0.05846581 0.16545492 0.00452631 0.03424292
0.16086756 0.12104752 -0.15180615 0.045438245 0.031555124 -0.11891214 -0.099148706 0.0809196
0.013993099 0.01710407 0.115878955 0.12312353 -0.18889397 -0.1361476 0.0016263011 -0.09896251

conv1.bias f4 [100]
00000000: 8cc4 b5b9 d2dd e2bc 351e c4bb 710a 903d
00000010: 5dc3 a03d 3965 843c 1379 833d 9ca8 9e3b
00000020: d889 ceb9 0611 69bd c231 ce3c b08b 4bbd
00000030: 1c97 86bc 44d6 9ebb ceb8 6ebd 4a54 04bd
00000040: ebc8 3dbc 2a92 423d a731 8d3d 8fee 75bd
00000050: 25a2 73bd 4b61 2f3d a1d6 b03c 3261 013c
00000060: eb37 30bd 15cc 99bc f61d 4fbc 7d3d 17bd
00000070: 923c 7eba a60a 43bd 3558 91bd 3891 9e3d
00000080: bbf0 833d 1579 92bd b5c6 6ebd 28e5 9f3d
00000090: 9257 8dbd fe50 903d d82a 6e3c 0302 90bd
000000a0: 5a71 23bd 9c31 84bc 38b5 073d a943 743d
000000b0: f66f 643d 51bd e83c 672c 8ebd a698 86bd
000000c0: 1a84 653d c6ee 583c 3f5e a03d a9b1 b93c
000000d0: 9afb 60bb 6b03 99bd ed1d bd3c 3704 95bd
000000e0: 4f46 05bc 8bc0 4ebb 0ee8 fc3c 7dd6 e2bb
000000f0: 83a1 6ebd 254e fabc a0dd 5a3d 3eff 61bd
00000100: 6062 b1bb da97 023b 9af1 3c3c 15b2 3f3d
00000110: a43d 23bd 6acf 37bd 17ce 65bd ab8d 48bd
00000120: fa88 72bc 763d c43b 1ce5 6abd 5c96 b83a
00000130: 9070 6e3d 25b5 6f3a 4a28 23bd 6005 81bd
00000140: 5886 f03c 831a 883d 2046 84bc 00e4 e9bc
00000150: 7f3f 8a3d c890 953d 28c1 933d b00d 37bd
00000160: 0468 b63c e21c 723d 3359 21bd 7eab 743d
00000170: 35a6 813d 9c0e 1e3d 0941 65bd c5ee 6e3d
00000180: 7952 163d 33b2 193d 858f 053d cdef 3b3d
-0.0003466945 -0.027693663 -0.0059850463 0.070332415 0.078497626 0.016161548 0.064195774 0.004841877
-0.00039394083 -0.056901 0.02517021 -0.049693763 -0.016429476 -0.00484732 -0.058281712 -0.032306947
-0.011583547 0.047502674 0.06894236 -0.06004196 -0.059480805 0.042817395 0.021586718 0.007896708
-0.043022078 -0.018774072 -0.012641421 -0.036923874 -0.0009698357 -0.047617577 -0.07096902 0.07742542
0.064424 -0.07152001 -0.05829497 0.0780738 -0.06901468 0.07046698 0.014536582 -0.07031634
-0.039903022 -0.016136937 0.033131808 0.05963484 0.055770837 0.028410586 -0.06942063 -0.06572084
0.056034185 0.013240522 0.07830476 0.022667723 -0.0034329654 -0.07471355 0.023085559 -0.072761945
-0.008134439 -0.003154787 0.030872371 -0.0069225417 -0.0582595 -0.03055484 0.053434014 -0.05517506
-0.0054133385 0.0019926936 0.011532212 0.04680069 -0.039853707 -0.04487554 -0.056104746 -0.04896323
-0.014803166 0.005988772 -0.057347402 0.0014082897 0.058212817 0.0009144119 -0.039833345 -0.06299853
0.029360935 0.06645682 -0.01614672 -0.028551102 0.06750392 0.073030055 0.07214576 -0.044690788
0.022266395 0.059109576 -0.039391708 0.05973386 0.063305296 0.03858815 -0.055970225 0.058333177
0.036699746 0.03752346 0.032607574 0.04588299

conv1_bn.weight f4 [100]
00000000: 59d2 7e3f e504 803f a3b1 7f3f 6d52 7e3f
00000010: bcd2 7f3f 2d09 7f3f f101 813f ac27 7f3f
00000020: a630 803f b23a 803f 2640 803f f212 803f
00000030: d34c 803f fdd3 7f3f 0f26 803f d9ef 7e3f
00000040: f259 803f 9415 803f 062a 7f3f d939 803f
00000050: 7106 803f 633c 803f 5f75 803f 5e66 7f3f
00000060: a5ab 7f3f d8ff 7f3f 2df5 803f 02bb 803f
00000070: fb0e 7f3f e9d5 7f3f 0d6a 803f 4018 803f
00000080: 4653 803f 26a3 7f3f c8fb 7e3f baeb 7f3f
00000090: 0fba 803f 431d 803f 300d 803f cb42 7f3f
000000a0: a362 803f a76f 7f3f 3023 803f 7e23 803f
000000b0: 3962 7f3f 2fcb 7f3f 451a 803f 0000 803f
000000c0: 26d9 7f3f b7e5 7f3f fa1d 803f 632d 803f
000000d0: a31e 823f 7ce6 7d3f 30ae 7f3f 0000 803f
000000e0: 5ef3 7f3f 3a1b 803f 1801 803f 89ec 7f3f
000000f0: 564b 803f b42b 803f 7560 803f e51b 803f
00000100: 47e6 7d3f 1294 7f3f 3ab3 7e3f a130 803f
00000110: 0000 803f 982d 7f3f 0000 803f d720 803f
00000120: 5125 7e3f f905 803f 613d 7f3f 93de 803f
00000130: ebee 7f3f e63e 7e3f 4811 803f 7f9a 803f
00000140: a14c 7f3f 0e58 803f c440 803f dc78 7f3f
00000150: 6c86 803f 870a 803f d163 7d3f 0000 803f
00000160: 7c6c 803f 92a3 7e3f d406 803f 4905 803f
00000170: 267c 803f 0b16 803f be05 803f 9456 803f
00000180: 7931 803f e973 7f3f b9e6 7f3f 94cc 7e3f
0.99539715 1.0001494 0.9988043 0.9934452 0.9993093 0.99623376 1.0078717 0.9966991
1.0014846 1.0017912 1.0019577 1.0005782 1.0023445 0.99932843 1.0011615 0.9958473
1.0027449 1.0006585 0.996735 1.0017654 1.0001966 1.0018429 1.0035819 0.99765575
0.99871284 0.9999976 1.0074822 1.005707 0.99632233 0.99935776 1.0032364 1.00074
1.0025413 0.9985832 0.9960294 0.99969065 1.005678 1.000893 1.0004025 0.99711293
1.0030102 0.9977974 1.0010738 1.0010831 0.9975925 0.9991941 1.0008017 1.0
0.9994072 0.9995989 1.0009148 1.0013851 1.01656 0.99179816 0.99875164 1.0
0.99980724 1.0008309 1.0000334 0.999703 1.0022991 1.0013337 1.0029436 1.0008513
0.991795 0.9983531 0.9949223 1.001484 1.0 0.99678946 1.0 1.0010022
0.9927569 1.0001823 0.9970303 1.0067924 0.99973935 0.99314725 1.0005274 1.0047148
0.997263 1.0026872 1.0019765 0.9979379 1.0041022 1.0003213 0.9898043 1.0
1.0033107 0.9946834 1.0002084 1.0001613 1.0037887 1.0006727 1.0001752 1.0026422
1.0015098 0.9978624 0.9996143 0.9953091

conv1_bn.bias f4 [100]
00000000: 8e87 3e3b a97b 19ba ba0b 723b be13 b1b8
00000010: 5afa ce38 020a cb3b fe82 03bb 171f 053b
00000020: de82 a43a 6847 9ebb ab19 e8ba 3590 dfbb
00000030: b38a 793b 94cb a4ba 132a 08bc 6e11 2cba
00000040: 2ef3 8d3b 363e cabb 287b ea3a eb94 bd3a
00000050: b84c 46bb c906 fc38 8953 8739 6909 9fba
00000060: e82f ee3a c37e 3f3b 32ad 6cb9 534d e6ba
00000070: 1d3f d3bb 5b25 d9ba 6d33 44bb 05ae 2abb
00000080: ef98 2bbb d4d7 f13a f55c 1cbb 2ad5 ffba
00000090: 5748 623a 42d0 daba 5fa6 7c3a 618f 013b
000000a0: 3542 30bb 44f5 94ba 6b63 073b 4990 0e39
000000b0: 9b3d d1b9 a495 213a 0416 a63a 4a77 0739
000000c0: cfcd a23a a419 3abb 6cde 0abb 69e1 80bb
000000d0: 13d7 92bb a62e d5bb acbc edba 2a37 5939
000000e0: c3a0 9b3b e6c8 49ba d941 5f3b 580f 08b8
000000f0: b666 8a3b c65c 92ba cd8b 9b3b 7f07 973a
00000100: 03f3 5d3a 65a3 fa39 37cc afba 9a14 21ba
00000110: 0527 9fb7 85d9 163b 9dc7 383b 4bd9 c13a
00000120: b3f1 04bb 12b1 64bb 98c5 523a 559e 97ba
00000130: 2c6e 4439 3deb 7eb9 dce1 8fba 7a62 b4bb
00000140: beba 37bb 5242 fcb9 08da 8b3b cbb7 0bba
00000150: fbeb 2dbb b457 7d3a 3ffe 173b 3bac 16b9
00000160: d558 d63a fb26 94ba 9450 23bb f771 12bb
00000170: 0d69 8e3a e9f4 113b 0201 c1bb a33f c53a
00000180: 86f2 573b 8ac1 38b9 8656 e5ba 21ba 793b
0.0029072496 -0.00058549136 0.003693326 -8.443695e-05 9.869477e-05 0.0061962614 -0.002006709 0.002031272
0.0012551208 -0.0048302896 -0.0017707845 -0.0068226107 0.0038077056 -0.0012572878 -0.0083108125 -0.00065638765
0.004331968 -0.006171967 0.0017889487 0.0014463937 -0.003025813 0.0001201756 0.00025811445 -0.0012133542
0.0018172236 0.0029219843 -0.00022571234 -0.0017570652 -0.0064467327 -0.0016566919 -0.0029937879 -0.0026043665
-0.0026183685 0.0018451163 -0.0023859118 -0.0019518484 0.00086319953 -0.0016694146 0.00096378283 0.0019769298
-0.0026894931 -0.0011364599 0.0020658623 0.00013595926 -0.00039909486 0.0006163961 0.0012671356 0.00012919042
0.0012420955 -0.002839663 -0.0021189703 -0.003933121 -0.0044812053 -0.006505805 -0.0018137894 0.00020715283
0.004749389 -0.00076974777 0.0034066348 -3.2439217e-05 0.00422367 -0.0011166565 0.00474689 0.001152262
0.00084666925 0.00047805454 -0.0013412301 -0.00061447325 -1.8972447e-05 0.0023017835 0.002819515 0.001478949
-0.0020285666 -0.0034895581 0.0008040308 -0.0011567572 0.00018733059 -0.0002431096 -0.0010977346 -0.0055049034
-0.002803489 -0.00048114598 0.0042679347 -0.00053298165 -0.002653836 0.0009664253 0.0023192314 -0.00014369276
0.0016353378 -0.0011303121 -0.0024919854 -0.002234576 0.0010865048 0.0022271222 -0.0058900127 0.0015048872
0.0032950952 -0.00017619706 -0.00174971 0.0038105326

conv1_bn.running_mean f4 [100]
00000000: cf2a fd42 49d1 ea37 4376 ed37 cd47 d03f
00000010: c4a7 8c44 88dc fe40 dbb1 9243 177c 3640
00000020: 6cc8 aa3f 3619 ea43 dac6 1344 2683 7a40
00000030: e10b 2b44 eee3 b23f 73ea b543 339d 2e40
00000040: a0d2 0444 a24f 9043 acd0 7040 1bf3 b242
00000050: 3b0f 9a1f 637f e43a 6e6f 7943 f1e0 a044
00000060: 346b fc3f 6924 5235 7258 2140 5662 b83f
00000070: 74e1 9240 c6d1 2340 f4f6 4a40 9e22 fe43
00000080: 3e0b 8244 fef4 e143 e861 e643 c7ce dc43
00000090: 3f79 ed42 bfdf bd42 3a21 5640 dea6 8544
000000a0: c476 1940 e2fe ca40 051b 0344 3986 bb40
000000b0: 5346 153b 93be 973a 161d d93a 0000 0000
000000c0: 91fc 3240 11a9 5240 2ec9 d740 4b57 a53f
000000d0: 3936 b742 7c25 5540 3ed2 0141 0000 0000
000000e0: 72ac c235 4d5b b443 a90b 0c44 6a0c b540
000000f0: 3323 3744 1e5d 6138 5edd 0e3b 6be7 c61e
00000100: 700f 0140 e8fa 5644 ee63 5c44 7fab f83f
00000110: 0000 0000 2a1b 0d44 0000 0000 fbfb a939
00000120: 3212 3740 3368 4f40 e767 a63f f2a1 c93e
00000130: a154 2244 09e1 0e43 5f14 f523 64f5 f63f
00000140: fc80 9c3a 1206 3a43 a835 3340 7eee 0e44
00000150: fdcf 303f 065b 433b ccb7 a644 0000 0000
00000160: 55ae af43 cfdb 4d40 20ba 0636 f3d9 9443
00000170: 0dbc 293b 5283 db3a a9fc cd43 fb0f a53f
00000180: 41ac 2144 a6c7 673c 20e7 3a44 ad32 9940
126.58361 2.799243e-05 2.8307672e-05 1.6271912 1125.2427 7.9644203 293.3895 2.8513238
1.3342414 468.19696 591.10706 3.9142547 684.1856 1.3975809 363.83163 2.7283447
531.291 288.62213 3.7627363 89.474815 6.5246734e-20 0.0017432984 249.43527 1287.0294
1.9720216 7.828408e-07 2.5210233 1.440501 4.590021 2.5596786 3.1713228 508.27045
1040.3513 451.914 460.7649 441.61545 118.73681 94.937004 3.345778 1069.2146
2.3978739 6.3436136 524.4222 5.8601346 0.0022777512 0.0011577181 0.0016564454 0.0
2.7966654 3.291569 6.743308 1.2917265 91.6059 3.3304129 8.113829 0.0
1.4504315e-06 360.7133 560.1822 5.6577654 732.55 5.3730902e-05 0.0021799426 2.1059778e-20
2.0165672 859.9204 881.5614 1.9427336 0.0 564.42444 0.0 0.00032421932
2.8604856 3.2407348 1.3000458 0.39381367 649.3223 142.87904 2.657158e-17 1.9293637
0.0011940296 186.02371 2.80015 571.72644 0.69067365 0.0029808893 1333.7437 0.0
351.36197 3.216541 2.0075895e-06 297.70273 0.002589944 0.001674751 411.9739 1.2895502
646.69147 0.014146721 747.6113 4.787436

conv1_bn.running_var f4 [100]
00000000: 40c1 7b44 951f 493a 4170 4d3a 3752 3643
00000010: f014 1347 1671 4c45 9314 4345 6ad4 e643
00000020: c4b0 bf43 5625 d145 fc0a 1d46 1f31 8344
00000030: 8f05 6546 cbc2 0443 d4b4 6e45 4da0 e243
00000040: ae47 2d46 b1b5 4945 9b27 7244 ae81 0345
00000050: ed5f 8424 3c99 9538 e2b6 3145 4bd8 3247
00000060: c48a 8743 df42 f136 bae9 7243 5af7 3643
00000070: 5c02 8b44 1451 c543 1236 0444 fd96 ef45
00000080: 9c58 f846 672f a845 cd32 bc45 85d4 0446
00000090: 4eb6 2e44 057e 1144 f35c 1544 c778 0247
000000a0: 3654 9a43 1d3e 2c45 50ae 1d46 7127 f244
000000b0: c161 ff38 89b4 b039 709a 853d 9c7f 8324
000000c0: 6e3b 0d44 98d3 2944 d231 2145 1278 d042
000000d0: 767c 2f44 374f 0f44 c857 5745 9c7f 8324
000000e0: b80c cf37 297f 9e45 d47a 1b46 4dfb f144
000000f0: 05b6 6446 6b03 cf3a a6eb e938 57ab 8324
00000100: ac90 8e43 c876 a446 505e 9e46 78fa 8043
00000110: 9c7f 8324 612d 2c46 9c7f 8324 c9f4 fd3b
00000120: 063a ec43 7e9d 3344 497c ac43 fc05 0642
00000130: 4d14 2d46 335a a145 017c 2626 dfe5 3144
00000140: 9577 0c38 d38c 9444 f68c cb43 26ff 3946
00000150: 152c 0442 8ab1 5a39 da61 5347 9c7f 8324
00000160: ff3b a645 1548 1744 dc55 4638 448b 9945
00000170: 8417 2539 2383 013c 314f c745 aeef e342
00000180: edbd 7a46 9345 c43f 3cbb 7846 044a 9444
1007.01953 0.00076722476 0.00078368565 182.32115 37652.938 3271.0679 3121.286 461.6595
383.38098 6692.667 10050.746 1049.535 14657.39 132.76091 3819.3018 453.25235
11089.92 3227.3557 968.61884 2104.105 5.740838e-17 7.133416e-05 2843.4302 45784.293
271.0841 7.1901445e-06 242.913 182.96622 1112.0737 394.63342 528.84485 7666.8735
31788.305 5381.9253 6022.35 8501.13 698.8485 581.96906 597.45233 33400.777
308.6579 2755.882 10091.578 1937.2325 0.000121775556 0.00033703845 0.06523597 5.702837e-17
564.9286 679.30615 2579.1138 104.23451 701.9447 573.23773 3445.4863 5.702837e-17
2.4682246e-05 5071.895 9950.707 1935.8531 14637.505 0.0015793865 0.00011154199 5.7102455e-17
285.13025 21051.39 20271.156 257.9568 5.702837e-17 11019.345 5.702837e-17 0.007750128
472.4533 718.4608 344.97098 33.505844 11077.075 5163.275 5.7760876e-16 711.59174
3.348997e-05 1188.4008 407.10126 11903.787 33.04305 0.00020856239 54113.85 5.702837e-17
5319.4995 605.1263 4.728684e-05 4913.408 0.00015744386 0.007904801 6377.899 113.968124
16047.481 1.5333732 15918.809 1186.313

conv2.weight f4 [100, 100, 3]
00000000: d60b 863d 2838 bbbd d6b4 65bd 7117 83bb
00000010: ff4a 76bd f722 a43d 540f 7e3d 3e7d 5e3d
00000020: 7337 fb3d 472f ff3d 4fa1 fc3c 24a4 0c3e
00000030: 4451 ba3d b51d 093e 72de 033d 5550 a7bc
00000040: 7b8b fbbd a43d d23d cf58 a13d 8e44 60bd
00000050: a9cf e43d 967f 263d 4457 c43d 4f72 ca3d
00000060: f95d 693d 9671 0c3d e99e 0bbe 5483 0c3e
00000070: 2d78 bcb9 131e 683d 3c79 093d 5e3d 0fbe
00000080: 8070 c2bd 9886 5f3d 6032 073e b2d9 9abd
00000090: 1acf ce3d 3eb7 283d 6561 493d e1e1 0bbe
000000a0: d2d7 a03d f4ad 9fbd 2f4f c23c 7a2b 8f3d
000000b0: 4cb8 973c 45e3 ddbd ec02 ebbc d255 f2bd
000000c0: 1d73 1ebd 6839 c63c 2858 f53d 1c0a 463d
000000d0: 2c39 fdbc a3b3 89bd 525e 443d 065a 64bd
000000e0: 65e4 7a3d 3dcd 93bd ad21 9d3d 6609 b7bd
000000f0: 6cc8 0dbe 67d9 033e a35e dfbd 181f 68bd
00000100: 65e8 10be 2a22 b53d 1aaa 793d 6d15 9c3d
00000110: c39c 303d 39e1 5e3d 2ad7 6dbd ec6f 1b3d
00000120: 0540 043e 0837 e2bc 9b82 4d3d 2d65 693a
00000130: 9234 0dbe abf9 0fbe bced ed3d aa17 bbbd
00000140: 5198 d63d 5634 47bd 68d1 493a 10b1 37bc
00000150: bea6 08bd c02d fd3d 9244 c03c 580d 87bc
00000160: bcf0 c1bd e66c 3bbc 955b dbbc ed40 01be
00000170: 4088 88bd 53d4 f73d 0807 c3bd 4099 003e
00000180: 26a8 babc f1d7 a2bc ce2e b73d f7be d0bb
00000190: 7cb2 103d cf58 fb3d 119d d3bd 380f 72bc
000001a0: c9d8 0ebe aa8f f93c 2c48 cb3d 2f4d f7bb
000001b0: 5430 b6bc f6cd 803d 4215 6bbc fe41 eebc
000001c0: d0f8 c9bc 13cd 27bd 8ecd f8bd e8e0 dabd
000001d0: e019 ebbd 1c49 12bd 5c67 eabc 5207 e03d
000001e0: c1fd a5bc 8704 a03c 9d98 933d 13a3 6a3d
000001f0: d5a4 dbbc bdc5 213d fade a8bd 244e 2fbd
00000200: cb79 91bd 57e3 9bbd c3f1 f33d fe1a c3bd
00000210: daa9 5ebd 160a fabd 22e0 bbbc 1e3d f43b
00000220: 4e56 ae3d b9c2 d2bb 322e 8b3d 380c df3d
00000230: 987b 95bd 083e 28bd 4155 a73d 7ea2 d8bd
00000240: 9bdb 993d e59e a73b 15e2 fd3d 4bbf e33d
00000250: 86ee fcbd 588f d13c 0fd4 7dbd 5ed7 ad3d
00000260: c573 183d dfc3 a6bd 2fef c5bc 9cfe f5bc
00000270: 4f12 f7bd 2a8a e3bd 1680 533c 1145 ff3d
00000280: ca8b a5bd 20aa 54bd 9315 893c 2246 e4ba
00000290: 2fb3 93bd dbeb 15bd 42c9 32bd 68ec dfbd
000002a0: 1955 9bbd 5b26 32bd c37d 703d 6291 0f3e
000002b0: c3a6 d6bc 6457 023e ade6 7cbd 0290 823d
000002c0: 052e fdbd 571b a73d 11eb 87bd 9514 923d
000002d0: a02c 80bc 25d4 be3d a176 093d 2f31 6fbd
000002e0: 4632 bdbd 4405 9ebd 1f0f a3ba 5787 90bd
000002f0: 979d 10bd e2e1 ba3d 2bee ba3d 98db e63d
00000300: 94a7 f03d 9e41 99bd d35d 07be e793 b43d
00000310: 8008 743d fb8f e53d dfa0 f2bd ff04 4cbd
00000320: 33fe 49bd 1a9c f5bd 407b b1bc eac8 c9bd
00000330: 6b6b 92ba 939f de3d c7b3 a5bd b23e e73c
00000340: fb7e a6bd 24ad 64bc 188c adbd 36e1 ef3c
00000350: b029 fd3c a824 c33d 8cca b8bd 0f95 95bb
00000360: 464c 283d 7e2e c73b 006c cabd f469 cc3c
00000370: ed4b fa3d 83e8 7c3c 684a ddbd 0930 f63d
00000380: 2225 863c 6a51 4abd 4ed1 8cbd 3548 8dbd
00000390: 835a b63d c4a2 dd3d 2012 963c 54e4 b23b
000003a0: a4ea b2bd 6c29 613d 881e 013d 9389 863d
000003b0: be91 08be 8df8 d03c f732 e8b9 e55d 46bc
000003c0: a708 f2bd 3a22 f7bc acca 913d 8dc0 efbd
000003d0: 79c7 86bd f1fa 08be cdf0 d83d e117 913c
000003e0: 52ce f6bd 8151 873b 85aa 7abd 7672 5dbc
000003f0: 4160 9d3d 72ab 903b b52e f53d 0f24 f83d
0.06545226 -0.0914157 -0.05608066 -0.004000597 -0.060130116 0.080144815 0.062026337 0.05431866
0.122664355 0.12460189 0.030838637 0.1373449 0.090975314 0.13390239 0.032194562 -0.020424047
-0.12282463 0.10265663 0.07878267 -0.05475288 0.111724205 0.04064902 0.09586957 0.09885084
0.056974385 0.03428801 -0.13634838 0.13721973 -0.00035947692 0.056669306 0.033562884 -0.13988253
-0.09494114 0.054571718 0.1320281 -0.07561053 0.10098095 0.04119038 0.04916515 -0.13660385
0.078536645 -0.07796851 0.023719398 0.06990714 0.018520497 -0.10834364 -0.028687917 -0.11832775
-0.038684 0.024197295 0.11979705 0.048349485 -0.03091105 -0.06723716 0.047941513 -0.055749916
0.06125297 -0.072168805 0.07672439 -0.089373395 -0.13845986 0.12875901 -0.109067224 -0.05667028
-0.14151151 0.08844407 0.060953237 0.07621274 0.04311825 0.054414008 -0.058066525 0.037948534
0.12915047 -0.027614132 0.050173383 0.0008903321 -0.13789585 -0.14060085 0.1161761 -0.09135373
0.10478271 -0.048633896 0.00076987455 -0.011211649 -0.033362143 0.12362242 0.023470197 -0.016485855
-0.094697446 -0.011439538 -0.026777068 -0.12622423 -0.066666126 0.121010445 -0.095228255 0.1255846
-0.022785258 -0.01987836 0.08944474 -0.006370421 0.035326466 0.12272798 -0.103326924 -0.014774136
-0.13949884 0.030464012 0.09925875 -0.007547043 -0.022239842 0.06289284 -0.01434833 -0.029084202
-0.024654776 -0.04096706 -0.121485814 -0.10687429 -0.11479545 -0.035714254 -0.028613739 0.10938896
-0.0202626 0.019533409 0.07206843 0.057284426 -0.026811996 0.03949522 -0.082456544 -0.04279913
-0.07103308 -0.07611721 0.11911347 -0.09526633 -0.0543612 -0.12208955 -0.022934023 0.007453575
0.08512555 -0.006431904 0.067959204 0.108910024 -0.07298964 -0.041074783 0.08170558 -0.10577868
0.075125895 0.0051153773 0.12396637 0.111204706 -0.12350182 0.025581047 -0.061969813 0.08488344
0.03721978 -0.08142828 -0.024161903 -0.030028634 -0.12064039 -0.11110337 0.012908956 0.12464345
-0.08083303 -0.051920056 0.01673392 -0.0017415921 -0.07211911 -0.036601882 -0.043648966 -0.10933763
-0.075845905 -0.04349361 0.058713686 0.14020303 -0.026202565 0.1272865 -0.061743427 0.063751236
-0.12362293 0.081595115 -0.06636632 0.07132832 -0.015646279 0.09317807 0.0335604 -0.058396515
-0.092381045 -0.07715848 -0.001244042 -0.07057064 -0.03530654 0.09125115 0.09127458 0.11272353
0.11750713 -0.074832186 -0.13219385 0.08817273 0.05957842 0.11209103 -0.1184709 -0.049809452
-0.04931469 -0.11992665 -0.021665215 -0.098527744 -0.0011170929 0.1087028 -0.080909304 0.028228138
-0.08129688 -0.013957296 -0.084739864 0.029282194 0.030903667 0.09528476 -0.09023008 -0.0045648883
0.041088365 0.0060785403 -0.098838806 0.024952866 0.12221513 0.0154362945 -0.108052075 0.12020881
0.016375128 -0.04939405 -0.06875859 -0.06898538 0.089039825 0.10822061 0.01831919 0.0054593477
-0.087361604 0.054971144 0.031523257 0.06569209 -0.13336846 0.025509143 -0.0004428846 -0.012107347
-0.118180566 -0.030167688 0.07118735 -0.11706648 -0.06581015 -0.13376977 0.10592804 0.017711582
-0.12051071 0.004129589 -0.061197776 -0.013516059 0.076843746 0.004414969 0.11971799 0.12116253

conv2.bias f4 [100]
00000000: 3c0f b6bc 7084 233d fb68 463d 9c96 50bb
00000010: 00c2 0e3d 6c66 42bc 0c1f b93c 90be 313d
00000020: fb79 0dbd 8f1d 10bd 5624 143c 12ba a4bc
00000030: 1704 393d c150 e13c 4df5 4cbd 6cc8 4bbc
00000040: 95d7 d93c ede0 27bd a762 e73c 83e9 92bb
00000050: ab23 513c b05b 39bd b7a9 eb3c dfa1 683d
00000060: d5e9 9f3c 0477 2ebd aee1 bcbc bf7d 843c
00000070: 95dc 95bb 4695 9f3c e2b7 88bc 5185 7a3c
00000080: 9433 63bd 6d69 1f3d 0c2b a5bc 9679 10bd
00000090: d667 293d a7ea e8bc 3b95 71bc 495c 59bd
000000a0: 24bf 39bc 8549 4abd b1d7 a13c 88bd 65bc
000000b0: b837 53bd 6be7 eb3b 776d 8e3c 89bc b33a
000000c0: 7ab8 183d 4b32 6a3d d9ba c93c 954b a8bc
000000d0: 70c5 e7bc f078 a43a 023f 7c3c 77d8 65bd
000000e0: 8020 233d d564 dcbc 3db9 d1bc 27f7 eb3c
000000f0: ba8f 083c bd7c 20bd 76f6 72bc 63fe 10bd
00000100: 434a 38bd ba07 5c3c c059 66bd fe98 01bd
00000110: 4e6d 0bbd b9a0 333c d66f 35bd 6c7e 5dbc
00000120: d478 493d 706d 5d3c a657 76bc e08e 4dbd
00000130: 4db4 a13c 23ff 953c e2b8 493d e3bb a93b
00000140: 9b14 0e3d d534 debc cf6f cbbc f191 de3c
00000150: 3646 c83c 84d8 4dbd 66aa 4e3a 17b2 ef3b
00000160: 0a99 c23b 4e32 e0bc 7897 9e3c 8322 583c
00000170: e1d4 823c 81d4 19bd a752 4fbd 8836 ce3c
00000180: fb06 883c 88f6 9d3c 4067 6139 5da5 99bb
-0.022224061 0.039921224 0.04843996 -0.0031828051 0.03485298 -0.01186524 0.022597812 0.043394625
-0.034540158 -0.03518444 0.009041866 -0.020108256 0.045169916 0.027504327 -0.050038625 -0.012437921
0.026592055 -0.04098599 0.028245283 -0.004483403 0.012764852 -0.045253456 0.02876745 0.056794997
0.01952068 -0.04259397 -0.023056831 0.016173242 -0.0045734146 0.019480359 -0.016689245 0.015290574
-0.05546911 0.0389189 -0.020162128 -0.035272203 0.04135879 -0.028432203 -0.014745052 -0.053066526
-0.011337075 -0.04938652 0.01975617 -0.014022239 -0.05156681 0.007199218 0.017386181 0.0013712804
0.037285306 0.05717687 0.024625229 -0.020543853 -0.028292388 0.0012548249 0.015395882 -0.05611464
0.039825916 -0.02690355 -0.025601024 0.028804375 0.008335048 -0.03918146 -0.014829269 -0.035398852
-0.044992696 0.0134295765 -0.056237936 -0.031640045 -0.034039788 0.010963612 -0.04429611 -0.013518911
0.049187496 0.013514861 -0.015035545 -0.050185084 0.019739294 0.018310135 0.049248584 0.0051798685
0.03468762 -0.027124802 -0.024833588 0.0271692 0.024447542 -0.050255314 0.0007883668 0.007314931
0.005938654 -0.027367737 0.019359335 0.013191822 0.01597065 -0.037556175 -0.050615933 0.025172487
0.016604891 0.019282594 0.00021496136 -0.0046889023

conv2_bn.weight f4 [100]
00000000: 3eaa 7e3f 6c59 7d3f d082 7b3f a831 7c3f
00000010: ca5e 7c3f 2d49 7d3f 0de8 7b3f 0e0a 7c3f
00000020: 0bff 7b3f 3b2c 7c3f 5a90 7d3f 7938 7e3f
00000030: 058c 7b3f f539 7e3f b825 7d3f 58d9 7b3f
00000040: e95d 7e3f 980d 7f3f 2ccf 7e3f 8c53 7b3f
00000050: 0cd9 7b3f 18a9 7c3f 50a2 7e3f 660f 7c3f
00000060: 0527 7b3f 0498 7b3f c3ed 7c3f 674e 7c3f
00000070: 2646 7b3f 9021 7b3f 6388 7d3f 5709 7e3f
00000080: 4cbf 7c3f ebba 7b3f 53b8 7c3f 047c 7b3f
00000090: 43b4 7b3f 0bf7 7b3f 8c6d 7f3f 024a 7e3f
000000a0: 6229 7f3f 4d59 7e3f acb8 7b3f 95f5 7d3f
000000b0: eb01 7d3f 0e56 7b3f dd40 7d3f f99e 7b3f
000000c0: e340 7c3f b120 7b3f 2708 7f3f c0fd 7b3f
000000d0: ab13 7d3f 9474 7c3f 5201 7b3f 10f3 7b3f
000000e0: 59d9 7a3f 32b3 7e3f 3251 7b3f afd6 7b3f
000000f0: 1151 7b3f 5d1d 7d3f df97 7c3f 36c3 7c3f
00000100: a0e8 7e3f dbb6 7b3f 6659 7b3f 9011 7b3f
00000110: 108b 7b3f bdfd 7a3f 73be 7b3f 00e1 7e3f
00000120: 330a 7e3f e0a7 7c3f 3468 7e3f 379b 7d3f
00000130: 9881 7c3f 9e94 7e3f 78be 7c3f 883b 7d3f
00000140: 031b 7c3f 51cc 7d3f 07b0 7b3f 49a3 7b3f
00000150: de16 7d3f fecd 7e3f ce1a 7b3f 5893 7d3f
00000160: 3662 7b3f c8a5 7b3f 923c 7b3f 8bc8 7d3f
00000170: c3ac 7f3f d597 7c3f 8541 7e3f 4968 7b3f
00000180: 0c1e 7b3f bab5 7c3f 4585 7f3f c471 7b3f
0.9947852 0.9896457 0.9824648 0.9851327 0.98582137 0.9893978 0.98400956 0.9845284
0.9843604 0.9850499 0.9904839 0.9930492 0.9826053 0.99307185 0.9888568 0.98378515
0.99362046 0.9963012 0.9953487 0.9817436 0.9837806 0.98695517 0.9946642 0.98460996
0.98106414 0.9827883 0.98800296 0.9855713 0.98153913 0.9809809 0.99036235 0.99233
0.98729396 0.9833209 0.98718756 0.9823611 0.9832193 0.9842383 0.9977653 0.99331677
0.9967252 0.9935501 0.9832866 0.99202853 0.9883105 0.98178184 0.989271 0.9828945
0.9853651 0.9809676 0.99621814 0.98434067 0.98858136 0.98615384 0.9804889 0.9841776
0.97987896 0.9949218 0.9817077 0.98374456 0.9817057 0.9887293 0.98669237 0.9873537
0.9957371 0.9832589 0.98183286 0.98073673 0.9825907 0.98043424 0.9833748 0.9956207
0.9923431 0.98693657 0.9937775 0.99064964 0.98635244 0.9944552 0.9872813 0.9891896
0.98478717 0.9913989 0.9831547 0.9829603 0.9886302 0.9953307 0.98087776 0.99052954
0.98196733 0.9829984 0.981393 0.9913413 0.9987299 0.9866918 0.99318725 0.98206
0.9809272 0.9871479 0.9981273 0.9822047

conv2_bn.bias f4 [100]
00000000: d213 1f3a 5284 663a b943 85b9 ac9b 85ba
00000010: d8a8 233a 5949 133a 83c3 7239 8778 473a
00000020: 5d71 82b9 e11c af3a ff73 d7ba 7151 663a
00000030: df66 4a37 d161 d9ba ede9 9aba 6816 bbb9
00000040: 77da 22bb 4fe6 e8ba baa0 6b3b 7678 60ba
00000050: 6e9d c2b9 c80d 963a ed1f 013b 3e33 9fb9
00000060: 4d1a dab9 f945 8a3a 47a3 ad3a 0acd bfb9
00000070: 1711 f7b9 d383 02ba 4e5a 07b9 32f6 58ba
00000080: 7c76 0e3b f0a1 a2b8 a3fc 98ba 7344 253a
00000090: 7ea8 c839 1271 1bba d5e4 893a f7b0 0639
000000a0: e337 113a 040d c9b9 c5fb 3aba f96d 103a
000000b0: afc2 03ba 1e7f 643a 25e7 293a 4c40 0ab9
000000c0: 8f7c b538 2500 08ba fb04 103b c23e 28ba
000000d0: 8139 c8b9 6e06 0fba 3846 30ba 9b29 36ba
000000e0: a907 1cb9 1fef 8f39 206e 9239 4339 a43a
000000f0: 25ab 153a 86a4 8db8 eb02 11ba 1662 313a
00000100: 2972 b93a 785d 7a39 50e5 aeb9 7096 93b9
00000110: 1cdf caba 5d41 f638 cc0c 3039 26e4 23bb
00000120: 5ada 8838 129f 72ba 2ac7 f4b9 8851 13ba
00000130: 7b86 8d3a a25c 5b3b 47bd 9b3a 5554 16bb
00000140: 3c68 53ba 6ade f93a 9d74 4eb9 941f 85b9
00000150: f64c 0cba fa04 c1ba 6ed2 52ba 1fdf 31b9
00000160: 1021 993a eb8d 4439 8d43 9e39 18cb 063b
00000170: 790c 863b 5de1 24ba e2e8 463a a1de 3ab7
00000180: 2600 95ba fa69 51b8 c746 47bb 89c5 4cb9
0.0006068322 0.0008793521 -0.00025418194 -0.0010193489 0.0006243116 0.00056185346 0.00023151752 0.00076092075
-0.00024879994 0.0013360047 -0.0016437768 0.00087859394 1.206409e-05 -0.0016584938 -0.0011818983 -0.00035684113
-0.0024849453 -0.0017768833 0.0035953955 -0.0008562872 -0.00037119858 0.0011448199 0.0019702867 -0.00030365022
-0.00041599796 0.0010549418 0.0013247513 -0.00036583125 -0.00047124244 -0.000497875 -0.00012908244 -0.0008276432
0.0021738103 -7.754925e-05 -0.0011671971 0.000630445 0.0003827251 -0.00059296296 0.0010520468 0.0001284516
0.0005539639 -0.00038347405 -0.00071328535 0.0005509551 -0.00050262635 0.00087164517 0.00064812816 -0.00013184658
8.6539534e-05 -0.000518801 0.0021975625 -0.0006418043 -0.00038189816 -0.0005455975 -0.00067243306 -0.0006948949
-0.00014880173 0.00027453245 0.0002792934 0.0012529272 0.00057094014 -6.754049e-05 -0.0005531746 0.000676663
0.0014148402 0.00023876678 -0.00033358717 -0.0002815011 -0.0015477869 0.00011742369 0.00016789435 -0.0025007813
6.5256565e-05 -0.00092552707 -0.00046687695 -0.0005619754 0.0010797525 0.0033471962 0.001188197 -0.002293845
-0.00080645434 0.0019063477 -0.00019689133 -0.00025391264 -0.0005352044 -0.0014726215 -0.0008042221 -0.00016963154
0.0011682827 0.00018744885 0.00030186438 0.002056783 0.0040908423 -0.0006289685 0.0007587803 -1.1138299e-05
-0.0011367842 -4.992818e-05 -0.0030407177 -0.00019528544

conv2_bn.running_mean f4 [100]
00000000: f62f 973e b9ab d83e f55e c93e 6268 843e
00000010: 7c38 9c3e 8f8d 923e 7b03 c23e c7ea 993e
00000020: a540 213e 62a4 a13e 29b6 a43e ecfc 383e
00000030: b403 7e3e fd89 ba3e 968d e63d 75a6 153f
00000040: d667 563e 053b c53d b160 6e3e de0b b83e
00000050: f453 ce3e 7be3 873e 8db2 f93e 422d c03e
00000060: 4bbc 8f3e 86be 4e3e 67a5 323e 0875 3e3e
00000070: e5fa f53e edac f03e e13c ef3d 3139 d53e
00000080: 6ff8 c03e 3125 fc3e 39a1 8a3e 0e2e b83e
00000090: 7bc6 803e 9f03 a43e 0917 303e 859a 793d
000000a0: cb1d b53e 48f1 983e 3173 823e dad4 293e
000000b0: 8552 f23e f72b d73e 799a 5b3e 152d bb3e
000000c0: f6a1 c03e 3862 233f 0e6f b63e c092 763e
000000d0: 207b 7a3e ea99 423e 6f2b d23e 8467 ab3e
000000e0: fee5 d13e d022 223e a112 263f 5b7e a53e
000000f0: 177c fa3e 4304 a13d f38d 1f3e 3670 d83e
00000100: 8cf9 8a3e e557 c13e 3ecf d73e 2575 933e
00000110: 361a b53e 23d5 ca3e a381 1b3f 0747 113f
00000120: 17de b73e d8bd 993e 5257 833e 341d ea3d
00000130: 1850 3d3e 02c4 9b3e b805 e13e 30b4 7f3e
00000140: 6a73 863e b3d9 6b3e 4b86 bc3e 7389 873e
00000150: d103 233e 9c79 883e e07f da3e f26d a03e
00000160: d8ab b63e 54d2 e53e fddf 053f 8676 a03e
00000170: 9c00 b63e 6d33 9d3e 4d5b c43d 15aa fc3e
00000180: 4629 073f 88d3 8e3e 8f09 9e3e c692 cb3e
0.2952878 0.42318514 0.3933026 0.25860888 0.30511844 0.28623626 0.3789328 0.30061933
0.15747316 0.31570727 0.32170227 0.18065232 0.248061 0.36433402 0.11257474 0.5845712
0.20938048 0.09630398 0.23279072 0.35946554 0.40298426 0.2654074 0.48769036 0.3753453
0.28073344 0.20189866 0.17445908 0.18599331 0.4804298 0.47006932 0.116815336 0.41645196
0.3768954 0.49247125 0.27076128 0.35972637 0.2515143 0.32034013 0.17196287 0.060938377
0.35374293 0.29871583 0.2547851 0.16585103 0.47328582 0.4202573 0.21445645 0.36557832
0.37623566 0.63821745 0.35631603 0.24079418 0.24461031 0.19004026 0.41048762 0.33477414
0.40995783 0.15833592 0.64872175 0.32322964 0.48922798 0.07862141 0.15581493 0.4227311
0.27143514 0.3776237 0.421503 0.28800312 0.3537156 0.39615735 0.60744685 0.56749004
0.3591163 0.30027652 0.25652558 0.11431351 0.18487585 0.3042298 0.43949676 0.2497108
0.2625993 0.23032264 0.36821207 0.26472053 0.15919425 0.2665528 0.42675686 0.31333882
0.3567798 0.4488703 0.52294904 0.31340426 0.3554734 0.30703297 0.09587727 0.49348512
0.52797353 0.2789576 0.30866668 0.39760417

conv2_bn.running_var f4 [100]
00000000: 965e 363e 84f8 733e 6c32 913d ee09 bd3e
00000010: ae6e 3f3f 89ec 1c3f df05 c83f 11e3 0f3f
00000020: 50d8 013f 7d71 ad3f 7ee1 7d3d 7f8e 0a3e
00000030: 90f3 423f 6840 b53e 286e 893e cbb7 5140
00000040: 9251 cc3d ec9e e03d 2242 b73c 6fb7 1240
00000050: 1d4a 8a3f 9d65 253e c7be 533d 9dcc b93f
00000060: 8588 3f3f 1d27 5f3f 339a 3a3e 2a24 0b3e
00000070: 403f 8240 3b90 0040 d39f 4f3e 503c 033e
00000080: 5867 093e 397d 1d40 4bca 333f 303a 223f
00000090: a377 1d3f 094f 733f 8438 143d dc41 983e
000000a0: 37e1 033e d9b4 063e 118e 8a3e 8e41 663e
000000b0: d46e 493e c4c3 0340 83ce 463f 8ac7 ae3f
000000c0: 74f0 8e3f b6ef 8140 9b01 2b3e 0aac 4b3f
000000d0: 7b5c 223f 50ce 063f 2aad ca3f c670 f13f
000000e0: 9a00 e73f 3069 f53d 633c 7940 6eac 4f3f
000000f0: d4dc 1c40 54f4 d83d 1924 d33e 9488 c53f
00000100: 9bb5 e63d 4e33 903f b5d6 0040 fea9 b83f
00000110: ac97 b53f d947 4740 b639 4940 7c8b ad3d
00000120: 6165 f53d 8e37 0b3e 1d19 e43d 2a4c 693e
00000130: e8c7 343e 5b37 fb3d 2a33 fe3e 0fce bd3d
00000140: 4724 bb3e f279 903d 27db 843f 5d05 483f
00000150: 768d 5e3f fa52 a63c 6448 3f40 4637 b13e
00000160: 20d6 483f c513 d13f eba4 7040 8e7e ad3e
00000170: 0dd0 3e3e 6a4e 333f 6728 c03e 70fb b23e
00000180: 1ee6 0940 eda2 a53e ba95 913d 43c9 a03f
0.17809519 0.2382527 0.07089695 0.36921638 0.7477826 0.61298424 1.5626792 0.5620585
0.5072069 1.3550259 0.061982624 0.1353092 0.76152897 0.354007 0.26841855 3.2768428
0.09976496 0.10967812 0.022370402 2.292446 1.0803868 0.16152044 0.05169561 1.4515568
0.7481769 0.8716906 0.18222885 0.13588014 4.070221 2.0088031 0.20275812 0.12815976
0.13418329 2.460768 0.7023055 0.6337004 0.61510676 0.95042473 0.03618671 0.29737747
0.12878881 0.13154925 0.27061513 0.22485945 0.19671184 2.0588236 0.7765886 1.3654644
1.116713 4.0605116 0.16699831 0.79559386 0.63422364 0.5265856 1.5834095 1.8862541
1.8047059 0.119829535 3.8943107 0.8112248 2.4509783 0.10593477 0.41238478 1.5432305
0.11265107 1.1265657 2.0131047 1.4426877 1.4186912 3.1137602 3.1441474 0.0847387
0.11982227 0.13595411 0.111376025 0.2278296 0.17654383 0.122664176 0.4964841 0.09267818
0.36551115 0.07054509 1.037938 0.78133184 0.869346 0.020303238 2.9887934 0.34612483
0.7845173 1.6334158 3.7600658 0.33885616 0.18634053 0.70041525 0.37530825 0.34957457
2.1546702 0.32350865 0.07108636 1.256142

fc1.weight f4 [1, 2600]
00000000: f962 17bd acf5 88bc 7b89 333c ea80 403d
00000010: d282 45bc 26cb 393d 08c9 393d 7a3d e6bb
00000020: ac0e db3a 6322 243d 42a2 91bc 3b56 d7bc
00000030: 179d 3e3c 2375 c9bc 7be1 ec3c cdfc 0fbd
00000040: 61d2 a3ba e3a2 de3a 20e5 09bd 68ee 5bbc
00000050: 8cce 92bc 3b33 2fbd 043f 14bd db70 22bc
00000060: ba3f 27bb a00d 1bbd 4442 17bd 29d8 2f3d
00000070: 208e c3bc 6ddb 003d a07c fe3c 8178 2bbd
00000080: 05b1 ddbc 58d0 1dbd 3403 98bb d924 7abc
00000090: 886d 5d3c e0de 0e3c f211 81bb 5638 3a3d
000000a0: 1b53 28bd 9d03 a2bc 2225 ffbc b90d a9bb
000000b0: 762f 14bd 6814 b83c 49fe 463c 2277 183d
000000c0: 33e0 a73c 0e46 b53c a652 003c a2da 18bd
000000d0: 934d d93b ffe2 06bc 351a e13c cb87 2d3d
000000e0: 00a7 1c3d 5658 053d cb3d 923c 5e26 673c
000000f0: 3dea 13bd b098 36bd 46fa ae3c 1307 803c
00000100: b9e6 d83b 4be4 3abd 4a99 adbc 4f4d 38bd
00000110: cc51 03bd 3558 b1bc 92a0 f73c fda0 e6bc
00000120: 73cb 90ba 4727 0fbd 1419 e7bb f37f febc
00000130: 0767 08bd ef55 3cbd 4cd0 da38 042c 0fbc
00000140: 2311 10bd 81a4 923b 6861 84bc 00e0 073d
00000150: ce33 253d 9ebe 383d 49ab 82bc 09ed 5f3d
00000160: b547 223d 79e8 08bc be80 74bc 184b 7b3c
00000170: f4eb f53c 40f6 683d 159d 6cbc b362 fa3c
00000180: a802 d3bc 8b31 e3bc ec86 953b 2ec1 1fbd
00000190: 33fb 743c 8c83 f73c 2e70 e8bb 26db f13c
000001a0: 4173 c93b ca3c c2bc 106c 073d 4c3f fcbc
000001b0: b1d8 a9bc d048 733c 77aa 433d 8654 4ebb
000001c0: b5e7 3fbc 1f0f aabc c9e0 edbc ec8a 56bb
000001d0: 2784 173d 54cc 19bd 6fec dcbc c92c 12bc
000001e0: 5c7e 1ebd 1a3f d93b e5b8 4fbc 6fdd 80bb
000001f0: 4e5f 3b3c eef2 70bc cded 11bd 253a 78bc
00000200: 0d6c 41bd 725a 35bc 259a 1dbd d1e4 473d
00000210: 7584 3f3d 3461 c03c 8c75 cebc a69f 92bc
00000220: 78c5 fa3c 1486 cb3b a511 743c 2b4a 293d
00000230: e0db 103d 0d6d 4fbc 4efc a0bb 8e07 c43b
00000240: c847 513c 8910 a7bb 08cb f5bc 427d a9bc
00000250: f66c 4dbc 60ce cdbc 0cdb 2a3d ab44 cbbc
00000260: 9dfa b43c b3e7 fdb9 5657 81bc a997 fb3c
00000270: c786 b8bb bfdc 2cbd 66fc b9bc 914c 2d3d
00000280: 5ce8 ddbc 8e0a ebbc 729d 32bd 1c54 653c
00000290: fbb0 9fbc 705c 3b3d d181 bd3c 3f3c 8a3b
000002a0: 7984 9ebb 6f42 27bb 07b0 133d 0991 10bd
000002b0: 53b1 9a3c 580e c3bc e919 33bd cc52 15bc
000002c0: 2199 a53c b387 a63c a19c 28bb 7b81 a1bc
000002d0: b813 b33c 04ad 613c 6d55 cfbc 1179 db3c
000002e0: 752d 91bc e341 eb3c 3146 a83c 57a4 463c
000002f0: 55c4 0abd bc91 10bd 7250 0dbc 39ed 0939
00000300: 3806 eebb 7365 c1bc 394e a3ba 244d 88ba
00000310: b91e af3c 5af8 92bb 2a2b 9abc a350 50bc
00000320: ba0e 7cbc 67af 2fb9 371b a2bb c35c 4cbd
00000330: dc28 af3a fae2 dfbc e343 4cbd 3e12 e23b
00000340: ad29 463c eb13 ee3c 46af 433c c339 a8bb
00000350: a7ca 45bc ba56 b0bc 2f45 10bd a9c5 00bb
00000360: 2e42 303d 7fff e6bb 2100 e63c 4ec5 81bc
00000370: 521d 0cbc 537c 913c fd5f 05bd 5a9a 1dbc
00000380: f5b4 433c ac5c 0b3d b08a b839 70d1 8a3c
00000390: 2415 37bd 689a b5bc fb2f 073d 2035 e13b
000003a0: ea0a 05bd e086 a53c 687c 683c 6454 09bd
000003b0: b949 0f3c 4ba6 0abd ced1 0e3d 35de 3f3c
000003c0: 0fd6 163d d889 e0bc e9d8 45bd 5ee2 513c
000003d0: a256 f13c 737e f4bb 990c 1b3c 6867 00bc
000003e0: a882 0bbd 1557 28bd 32fc f3ba 26e0 283a
000003f0: 3184 c8bc cb16 a73c c8bb 21bd d716 873b
-0.036959622 -0.016718708 0.010958071 0.046997942 -0.012055116 0.045359753 0.045357734 -0.0070263715
0.0016712747 0.040071856 -0.017777566 -0.026286235 0.011634133 -0.024591988 0.028916111 -0.0351532
-0.0012498611 0.00169858 -0.033665776 -0.01342354 -0.017920755 -0.042773467 -0.03619291 -0.009914602
-0.0025520162 -0.03785479 -0.03692843 0.042930756 -0.023871481 0.03145926 0.031065285 -0.04186297
-0.027061949 -0.03852877 -0.0046390537 -0.015267574 0.013514884 0.00872013 -0.003938907 0.045463882
-0.04109488 -0.019777114 -0.031145636 -0.0051591066 -0.036178075 0.022470668 0.012145587 0.03722299
0.020492649 0.022128131 0.007832205 -0.03731788 0.006631562 -0.008232831 0.027478317 0.04236583
0.0382452 0.032554947 0.01785173 0.014108269 -0.03611206 -0.044579208 0.021359574 0.015628373
0.006619301 -0.045627873 -0.021191258 -0.044995602 -0.03206043 -0.021648506 0.030227933 -0.028152937
-0.0011046961 -0.034949567 -0.00705255 -0.03106687 -0.03330138 -0.04598039 0.000104338484 -0.0087385215
-0.035172593 0.004475177 -0.016159728 0.033172607 0.040332608 0.04510366 -0.015950816 0.054669414
0.039619166 -0.008356207 -0.014923273 0.015337728 0.030019738 0.056875467 -0.014441748 0.030564642
-0.025758103 -0.027733585 0.004563203 -0.03900259 0.014952469 0.030214094 -0.007093451 0.029523443
0.0061477725 -0.023710627 0.03306204 -0.030791901 -0.02073321 0.014848903 0.04776999 -0.0031483485
-0.011712958 -0.020759163 -0.02903785 -0.0032736612 0.036991265 -0.037548378 -0.02696821 -0.00892181
-0.038694724 0.0066298367 -0.01267836 -0.003932647 0.011436297 -0.014706356 -0.035627175 -0.0151505815
-0.047222186 -0.011068927 -0.03847708 0.0488022 0.04675718 0.02348385 -0.025202535 -0.017898392
0.030611739 0.0062110517 0.014896785 0.041330498 0.03536594 -0.012660277 -0.0049128896 0.005982346
0.012773462 -0.0050984067 -0.03000404 -0.02068961 -0.012538185 -0.025122821 0.041712806 -0.024813017
0.022092158 -0.0004842855 -0.015788715 0.030711966 -0.005631301 -0.042202707 -0.02270336 0.042309348
-0.027088337 -0.028691556 -0.043607183 0.013997104 -0.01949357 0.045742452 0.02313319 0.0042186077
-0.0048375693 -0.0025521775 0.036056545 -0.035294566 0.018883383 -0.02381055 -0.04372588 -0.009113979
0.02021462 0.020328378 -0.0025728124 -0.019715061 0.021859989 0.01377416 -0.025309289 0.026791127
-0.01772187 0.02871794 0.020541282 0.012124143 -0.033878643 -0.035295233 -0.008625137 0.0001315371
-0.007263925 -0.023607945 -0.0012459225 -0.0010398966 0.021376954 -0.004485172 -0.01881941 -0.012714538
-0.01538437 -0.00016754643 -0.004947092 -0.049893152 0.0013363617 -0.02732991 -0.04986943 0.0068991473
0.012094897 0.029062232 0.011943644 -0.005133839 -0.012072242 -0.02152573 -0.03522223 -0.0019649065
0.043031864 -0.0070495005 0.028076233 -0.015841153 -0.008551912 0.017759478 -0.032562245 -0.00961932
0.011944999 0.034023926 0.00035198545 0.01694557 -0.044697896 -0.022168353 0.033004742 0.006872788
-0.03248111 0.020205915 0.014189817 -0.033527747 0.008745604 -0.033849996 0.034868054 0.011710693
0.036825236 -0.027409479 -0.048302565 0.012810318 0.029460255 -0.007461363 0.009463453 -0.007837154
-0.03406015 -0.041098673 -0.0018614589 0.0006442092 -0.024477096 0.02039661 -0.039485723 0.004122596
